2023-11-14 17:34:46,804 - INFO - Dateset flow1 scaler   mean:3.806612988154794  std:7.791648984595828
2023-11-14 17:34:46,933 - INFO - STFGNN(
  (First_FC): Linear(in_features=1, out_features=64, bias=True)
  (STSGCLS): ModuleList(
    (0): STSGCL(
      (conv1): Conv2d(64, 64, kernel_size=(1, 2), stride=(1, 1), dilation=(1, 3))
      (conv2): Conv2d(64, 64, kernel_size=(1, 2), stride=(1, 1), dilation=(1, 3))
      (STSGCMS): ModuleList(
        (0-8): 9 x STSGCM(
          (gcn_operations): ModuleList(
            (0-2): 3 x gcn_operation(
              (FC): Linear(in_features=64, out_features=128, bias=True)
            )
          )
        )
      )
    )
    (1): STSGCL(
      (conv1): Conv2d(64, 64, kernel_size=(1, 2), stride=(1, 1), dilation=(1, 3))
      (conv2): Conv2d(64, 64, kernel_size=(1, 2), stride=(1, 1), dilation=(1, 3))
      (STSGCMS): ModuleList(
        (0-5): 6 x STSGCM(
          (gcn_operations): ModuleList(
            (0-2): 3 x gcn_operation(
              (FC): Linear(in_features=64, out_features=128, bias=True)
            )
          )
        )
      )
    )
    (2): STSGCL(
      (conv1): Conv2d(64, 64, kernel_size=(1, 2), stride=(1, 1), dilation=(1, 3))
      (conv2): Conv2d(64, 64, kernel_size=(1, 2), stride=(1, 1), dilation=(1, 3))
      (STSGCMS): ModuleList(
        (0-2): 3 x STSGCM(
          (gcn_operations): ModuleList(
            (0-2): 3 x gcn_operation(
              (FC): Linear(in_features=64, out_features=128, bias=True)
            )
          )
        )
      )
    )
  )
  (predictLayer): ModuleList(
    (0): output_layer(
      (FC1): Linear(in_features=192, out_features=128, bias=True)
      (FC2): Linear(in_features=128, out_features=1, bias=True)
    )
  )
)
2023-11-14 17:34:46,939 - INFO - First_FC.weight	torch.Size([64, 1])	cuda:0	True
2023-11-14 17:34:46,939 - INFO - First_FC.bias	torch.Size([64])	cuda:0	True
2023-11-14 17:34:46,939 - INFO - STSGCLS.0.temporal_embedding	torch.Size([1, 12, 1, 64])	cuda:0	True
2023-11-14 17:34:46,939 - INFO - STSGCLS.0.spatial_embedding	torch.Size([1, 1, 72, 64])	cuda:0	True
…
2023-11-21 18:36:03,436 - INFO - predictLayer.0.FC1.weight	torch.Size([128, 192])	cuda:0	True
2023-11-21 18:36:03,437 - INFO - predictLayer.0.FC1.bias	torch.Size([128])	cuda:0	True
2023-11-21 18:36:03,437 - INFO - predictLayer.0.FC2.weight	torch.Size([1, 128])	cuda:0	True
2023-11-21 18:36:03,437 - INFO - predictLayer.0.FC2.bias	torch.Size([1])	cuda:0	True
2023-11-21 18:36:03,439 - INFO - Total parameter numbers: 539329
2023-11-21 18:38:58,808 - INFO - Saved model at cache/model_cache\CITYFLOW_STFGNN_flow_phase_nonormal_mse_75.m
2023-11-21 18:38:58,828 - INFO - Start evaluating ...
2023-11-21 18:52:18,943 - INFO - STFGNN(
  (First_FC): Linear(in_features=1, out_features=32, bias=True)
  (STSGCLS): ModuleList(
    (0): STSGCL(
      (conv1): Conv2d(32, 32, kernel_size=(1, 2), stride=(1, 1), dilation=(1, 3))
      (conv2): Conv2d(32, 32, kernel_size=(1, 2), stride=(1, 1), dilation=(1, 3))
      (STSGCMS): ModuleList(
        (0-8): 9 x STSGCM(
          (gcn_operations): ModuleList(
            (0-2): 3 x gcn_operation(
              (FC): Linear(in_features=32, out_features=64, bias=True)
            )
          )
        )
      )
    )
    (1): STSGCL(
      (conv1): Conv2d(32, 32, kernel_size=(1, 2), stride=(1, 1), dilation=(1, 3))
      (conv2): Conv2d(32, 32, kernel_size=(1, 2), stride=(1, 1), dilation=(1, 3))
      (STSGCMS): ModuleList(
        (0-5): 6 x STSGCM(
          (gcn_operations): ModuleList(
            (0-2): 3 x gcn_operation(
              (FC): Linear(in_features=32, out_features=64, bias=True)
            )
          )
        )
      )
    )
    (2): STSGCL(
      (conv1): Conv2d(32, 32, kernel_size=(1, 2), stride=(1, 1), dilation=(1, 3))
      (conv2): Conv2d(32, 32, kernel_size=(1, 2), stride=(1, 1), dilation=(1, 3))
      (STSGCMS): ModuleList(
        (0-2): 3 x STSGCM(
          (gcn_operations): ModuleList(
            (0-2): 3 x gcn_operation(
              (FC): Linear(in_features=32, out_features=64, bias=True)
            )
          )
        )
      )
    )
  )
  (predictLayer): ModuleList(
    (0): output_layer(
      (FC1): Linear(in_features=96, out_features=64, bias=True)
      (FC2): Linear(in_features=64, out_features=1, bias=True)
    )
  )
)
2023-11-21 18:52:18,944 - INFO - First_FC.weight	torch.Size([32, 1])	cuda:0	True
2023-11-21 18:52:18,944 - INFO - First_FC.bias	torch.Size([32])	cuda:0	True
2023-11-21 18:52:18,944 - INFO - STSGCLS.0.temporal_embedding	torch.Size([1, 12, 1, 32])	cuda:0	True
2023-11-21 18:52:18,944 - INFO - STSGCLS.0.spatial_embedding	torch.Size([1, 1, 72, 32])	cuda:0	True
…
2023-11-21 19:14:19,865 - INFO - predictLayer.0.FC1.weight	torch.Size([64, 96])	cuda:0	True
2023-11-21 19:14:19,865 - INFO - predictLayer.0.FC1.bias	torch.Size([64])	cuda:0	True
2023-11-21 19:14:19,865 - INFO - predictLayer.0.FC2.weight	torch.Size([1, 64])	cuda:0	True
2023-11-21 19:14:19,865 - INFO - predictLayer.0.FC2.bias	torch.Size([1])	cuda:0	True
2023-11-21 19:14:19,866 - INFO - Total parameter numbers: 140641
2023-11-21 19:17:51,984 - INFO - Saved model at cache/model_cache\CITYFLOW_STFGNN_flow_phase_nonormal_mse_75.m
2023-11-21 19:17:52,002 - INFO - Start evaluating ...
2023-11-21 19:19:58,603 - INFO - STFGNN(
  (First_FC): Linear(in_features=1, out_features=16, bias=True)
  (STSGCLS): ModuleList(
    (0): STSGCL(
      (conv1): Conv2d(16, 16, kernel_size=(1, 2), stride=(1, 1), dilation=(1, 3))
      (conv2): Conv2d(16, 16, kernel_size=(1, 2), stride=(1, 1), dilation=(1, 3))
      (STSGCMS): ModuleList(
        (0-8): 9 x STSGCM(
          (gcn_operations): ModuleList(
            (0-2): 3 x gcn_operation(
              (FC): Linear(in_features=16, out_features=32, bias=True)
            )
          )
        )
      )
    )
    (1): STSGCL(
      (conv1): Conv2d(16, 16, kernel_size=(1, 2), stride=(1, 1), dilation=(1, 3))
      (conv2): Conv2d(16, 16, kernel_size=(1, 2), stride=(1, 1), dilation=(1, 3))
      (STSGCMS): ModuleList(
        (0-5): 6 x STSGCM(
          (gcn_operations): ModuleList(
            (0-2): 3 x gcn_operation(
              (FC): Linear(in_features=16, out_features=32, bias=True)
            )
          )
        )
      )
    )
    (2): STSGCL(
      (conv1): Conv2d(16, 16, kernel_size=(1, 2), stride=(1, 1), dilation=(1, 3))
      (conv2): Conv2d(16, 16, kernel_size=(1, 2), stride=(1, 1), dilation=(1, 3))
      (STSGCMS): ModuleList(
        (0-2): 3 x STSGCM(
          (gcn_operations): ModuleList(
            (0-2): 3 x gcn_operation(
              (FC): Linear(in_features=16, out_features=32, bias=True)
            )
          )
        )
      )
    )
  )
  (predictLayer): ModuleList(
    (0): output_layer(
      (FC1): Linear(in_features=48, out_features=32, bias=True)
      (FC2): Linear(in_features=32, out_features=1, bias=True)
    )
  )
)
2023-11-21 19:19:58,603 - INFO - First_FC.weight	torch.Size([16, 1])	cuda:0	True
2023-11-21 19:19:58,603 - INFO - First_FC.bias	torch.Size([16])	cuda:0	True
2023-11-21 19:19:58,603 - INFO - STSGCLS.0.temporal_embedding	torch.Size([1, 12, 1, 16])	cuda:0	True
2023-11-21 19:19:58,603 - INFO - STSGCLS.0.spatial_embedding	torch.Size([1, 1, 72, 16])	cuda:0	True
…
2023-12-10 21:21:34,527 - INFO - STSGCLS.2.STSGCMS.2.gcn_operations.2.FC.bias	torch.Size([32])	cuda:0	True
2023-12-10 21:21:34,527 - INFO - predictLayer.0.FC1.weight	torch.Size([32, 48])	cuda:0	True
2023-12-10 21:21:34,527 - INFO - predictLayer.0.FC1.bias	torch.Size([32])	cuda:0	True
2023-12-10 21:21:34,527 - INFO - predictLayer.0.FC2.weight	torch.Size([1, 32])	cuda:0	True
2023-12-10 21:21:34,527 - INFO - predictLayer.0.FC2.bias	torch.Size([1])	cuda:0	True
2023-12-10 21:21:34,527 - INFO - Total parameter numbers: 35761
2023-12-10 21:23:05,699 - INFO - Start evaluating ...
2023-12-10 21:26:46,487 - INFO - STFGNN(
  (First_FC): Linear(in_features=2, out_features=16, bias=True)
  (STSGCLS): ModuleList(
    (0): STSGCL(
      (conv1): Conv2d(16, 16, kernel_size=(1, 2), stride=(1, 1), dilation=(1, 3))
      (conv2): Conv2d(16, 16, kernel_size=(1, 2), stride=(1, 1), dilation=(1, 3))
      (STSGCMS): ModuleList(
        (0-8): 9 x STSGCM(
          (gcn_operations): ModuleList(
            (0-2): 3 x gcn_operation(
              (FC): Linear(in_features=16, out_features=32, bias=True)
            )
          )
        )
      )
    )
    (1): STSGCL(
      (conv1): Conv2d(16, 16, kernel_size=(1, 2), stride=(1, 1), dilation=(1, 3))
      (conv2): Conv2d(16, 16, kernel_size=(1, 2), stride=(1, 1), dilation=(1, 3))
      (STSGCMS): ModuleList(
        (0-5): 6 x STSGCM(
          (gcn_operations): ModuleList(
            (0-2): 3 x gcn_operation(
              (FC): Linear(in_features=16, out_features=32, bias=True)
            )
          )
        )
      )
    )
    (2): STSGCL(
      (conv1): Conv2d(16, 16, kernel_size=(1, 2), stride=(1, 1), dilation=(1, 3))
      (conv2): Conv2d(16, 16, kernel_size=(1, 2), stride=(1, 1), dilation=(1, 3))
      (STSGCMS): ModuleList(
        (0-2): 3 x STSGCM(
          (gcn_operations): ModuleList(
            (0-2): 3 x gcn_operation(
              (FC): Linear(in_features=16, out_features=32, bias=True)
            )
          )
        )
      )
    )
  )
  (predictLayer): ModuleList(
    (0): output_layer(
      (FC1): Linear(in_features=48, out_features=32, bias=True)
      (FC2): Linear(in_features=32, out_features=1, bias=True)
    )
  )
)
2023-12-10 21:26:46,489 - INFO - First_FC.weight	torch.Size([16, 2])	cuda:0	True
2023-12-10 21:26:46,489 - INFO - First_FC.bias	torch.Size([16])	cuda:0	True
2023-12-10 21:26:46,489 - INFO - STSGCLS.0.temporal_embedding	torch.Size([1, 12, 1, 16])	cuda:0	True
2023-12-10 21:26:46,489 - INFO - STSGCLS.0.spatial_embedding	torch.Size([1, 1, 24, 16])	cuda:0	True
…
2023-12-10 21:55:40,050 - INFO - STSGCLS.2.STSGCMS.2.gcn_operations.2.FC.bias	torch.Size([32])	cuda:0	True
2023-12-10 21:55:40,050 - INFO - predictLayer.0.FC1.weight	torch.Size([32, 48])	cuda:0	True
2023-12-10 21:55:40,050 - INFO - predictLayer.0.FC1.bias	torch.Size([32])	cuda:0	True
2023-12-10 21:55:40,050 - INFO - predictLayer.0.FC2.weight	torch.Size([1, 32])	cuda:0	True
2023-12-10 21:55:40,050 - INFO - predictLayer.0.FC2.bias	torch.Size([1])	cuda:0	True
2023-12-10 21:55:40,050 - INFO - Total parameter numbers: 35777
2023-12-10 22:18:46,345 - INFO - Start evaluating ...
2023-12-10 22:20:57,186 - INFO - STFGNN(
  (First_FC): Linear(in_features=2, out_features=32, bias=True)
  (STSGCLS): ModuleList(
    (0): STSGCL(
      (conv1): Conv2d(32, 32, kernel_size=(1, 2), stride=(1, 1), dilation=(1, 3))
      (conv2): Conv2d(32, 32, kernel_size=(1, 2), stride=(1, 1), dilation=(1, 3))
      (STSGCMS): ModuleList(
        (0-8): 9 x STSGCM(
          (gcn_operations): ModuleList(
            (0-2): 3 x gcn_operation(
              (FC): Linear(in_features=32, out_features=64, bias=True)
            )
          )
        )
      )
    )
    (1): STSGCL(
      (conv1): Conv2d(32, 32, kernel_size=(1, 2), stride=(1, 1), dilation=(1, 3))
      (conv2): Conv2d(32, 32, kernel_size=(1, 2), stride=(1, 1), dilation=(1, 3))
      (STSGCMS): ModuleList(
        (0-5): 6 x STSGCM(
          (gcn_operations): ModuleList(
            (0-2): 3 x gcn_operation(
              (FC): Linear(in_features=32, out_features=64, bias=True)
            )
          )
        )
      )
    )
    (2): STSGCL(
      (conv1): Conv2d(32, 32, kernel_size=(1, 2), stride=(1, 1), dilation=(1, 3))
      (conv2): Conv2d(32, 32, kernel_size=(1, 2), stride=(1, 1), dilation=(1, 3))
      (STSGCMS): ModuleList(
        (0-2): 3 x STSGCM(
          (gcn_operations): ModuleList(
            (0-2): 3 x gcn_operation(
              (FC): Linear(in_features=32, out_features=64, bias=True)
            )
          )
        )
      )
    )
  )
  (predictLayer): ModuleList(
    (0): output_layer(
      (FC1): Linear(in_features=96, out_features=64, bias=True)
      (FC2): Linear(in_features=64, out_features=1, bias=True)
    )
  )
)
2023-12-10 22:20:57,188 - INFO - First_FC.weight	torch.Size([32, 2])	cuda:0	True
2023-12-10 22:20:57,188 - INFO - First_FC.bias	torch.Size([32])	cuda:0	True
2023-12-10 22:20:57,188 - INFO - STSGCLS.0.temporal_embedding	torch.Size([1, 12, 1, 32])	cuda:0	True
2023-12-10 22:20:57,188 - INFO - STSGCLS.0.spatial_embedding	torch.Size([1, 1, 24, 32])	cuda:0	True
…
2023-12-10 22:21:59,520 - INFO - STSGCLS.2.STSGCMS.2.gcn_operations.2.FC.bias	torch.Size([64])	cuda:0	True
2023-12-10 22:21:59,520 - INFO - predictLayer.0.FC1.weight	torch.Size([64, 96])	cuda:0	True
2023-12-10 22:21:59,520 - INFO - predictLayer.0.FC1.bias	torch.Size([64])	cuda:0	True
2023-12-10 22:21:59,520 - INFO - predictLayer.0.FC2.weight	torch.Size([1, 64])	cuda:0	True
2023-12-10 22:21:59,520 - INFO - predictLayer.0.FC2.bias	torch.Size([1])	cuda:0	True
2023-12-10 22:21:59,536 - INFO - Total parameter numbers: 136065
2023-12-10 23:00:41,579 - INFO - Start evaluating ...
2023-12-11 00:15:00,219 - INFO - STFGNN(
  (First_FC): Linear(in_features=2, out_features=128, bias=True)
  (STSGCLS): ModuleList(
    (0): STSGCL(
      (conv1): Conv2d(128, 64, kernel_size=(1, 2), stride=(1, 1), dilation=(1, 3))
      (conv2): Conv2d(128, 64, kernel_size=(1, 2), stride=(1, 1), dilation=(1, 3))
      (STSGCMS): ModuleList(
        (0-8): 9 x STSGCM(
          (gcn_operations): ModuleList(
            (0): gcn_operation(
              (FC): Linear(in_features=128, out_features=128, bias=True)
            )
            (1-2): 2 x gcn_operation(
              (FC): Linear(in_features=64, out_features=128, bias=True)
            )
          )
        )
      )
    )
    (1): STSGCL(
      (conv1): Conv2d(64, 64, kernel_size=(1, 2), stride=(1, 1), dilation=(1, 3))
      (conv2): Conv2d(64, 64, kernel_size=(1, 2), stride=(1, 1), dilation=(1, 3))
      (STSGCMS): ModuleList(
        (0-5): 6 x STSGCM(
          (gcn_operations): ModuleList(
            (0-2): 3 x gcn_operation(
              (FC): Linear(in_features=64, out_features=128, bias=True)
            )
          )
        )
      )
    )
    (2): STSGCL(
      (conv1): Conv2d(64, 64, kernel_size=(1, 2), stride=(1, 1), dilation=(1, 3))
      (conv2): Conv2d(64, 64, kernel_size=(1, 2), stride=(1, 1), dilation=(1, 3))
      (STSGCMS): ModuleList(
        (0-2): 3 x STSGCM(
          (gcn_operations): ModuleList(
            (0-2): 3 x gcn_operation(
              (FC): Linear(in_features=64, out_features=128, bias=True)
            )
          )
        )
      )
    )
  )
  (predictLayer): ModuleList(
    (0): output_layer(
      (FC1): Linear(in_features=192, out_features=64, bias=True)
      (FC2): Linear(in_features=64, out_features=1, bias=True)
    )
  )
)
2023-12-11 00:15:00,222 - INFO - First_FC.weight	torch.Size([128, 2])	cuda:0	True
2023-12-11 00:15:00,222 - INFO - First_FC.bias	torch.Size([128])	cuda:0	True
2023-12-11 00:15:00,222 - INFO - STSGCLS.0.temporal_embedding	torch.Size([1, 12, 1, 128])	cuda:0	True
2023-12-11 00:15:00,222 - INFO - STSGCLS.0.spatial_embedding	torch.Size([1, 1, 24, 128])	cuda:0	True
…
2023-12-11 00:15:00,230 - INFO - STSGCLS.2.STSGCMS.2.gcn_operations.2.FC.weight	torch.Size([128, 64])	cuda:0	True
2023-12-11 00:15:00,230 - INFO - STSGCLS.2.STSGCMS.2.gcn_operations.2.FC.bias	torch.Size([128])	cuda:0	True
2023-12-11 00:15:00,230 - INFO - predictLayer.0.FC1.weight	torch.Size([64, 192])	cuda:0	True
2023-12-11 00:15:00,230 - INFO - predictLayer.0.FC1.bias	torch.Size([64])	cuda:0	True
2023-12-11 00:15:00,230 - INFO - predictLayer.0.FC2.weight	torch.Size([1, 64])	cuda:0	True
2023-12-11 00:15:00,230 - INFO - predictLayer.0.FC2.bias	torch.Size([1])	cuda:0	True
2023-12-11 00:15:00,230 - INFO - Total parameter numbers: 610369
2023-12-11 00:30:01,512 - INFO - STFGNN(
  (First_FC): Linear(in_features=2, out_features=128, bias=True)
  (STSGCLS): ModuleList(
    (0): STSGCL(
      (conv1): Conv2d(128, 16, kernel_size=(1, 2), stride=(1, 1), dilation=(1, 3))
      (conv2): Conv2d(128, 16, kernel_size=(1, 2), stride=(1, 1), dilation=(1, 3))
      (STSGCMS): ModuleList(
        (0-8): 9 x STSGCM(
          (gcn_operations): ModuleList(
            (0): gcn_operation(
              (FC): Linear(in_features=128, out_features=32, bias=True)
            )
            (1-2): 2 x gcn_operation(
              (FC): Linear(in_features=16, out_features=32, bias=True)
            )
          )
        )
      )
    )
    (1): STSGCL(
      (conv1): Conv2d(16, 32, kernel_size=(1, 2), stride=(1, 1), dilation=(1, 3))
      (conv2): Conv2d(16, 32, kernel_size=(1, 2), stride=(1, 1), dilation=(1, 3))
      (STSGCMS): ModuleList(
        (0-5): 6 x STSGCM(
          (gcn_operations): ModuleList(
            (0): gcn_operation(
              (FC): Linear(in_features=16, out_features=64, bias=True)
            )
            (1-2): 2 x gcn_operation(
              (FC): Linear(in_features=32, out_features=64, bias=True)
            )
          )
        )
      )
    )
    (2): STSGCL(
      (conv1): Conv2d(32, 64, kernel_size=(1, 2), stride=(1, 1), dilation=(1, 3))
      (conv2): Conv2d(32, 64, kernel_size=(1, 2), stride=(1, 1), dilation=(1, 3))
      (STSGCMS): ModuleList(
        (0-2): 3 x STSGCM(
          (gcn_operations): ModuleList(
            (0): gcn_operation(
              (FC): Linear(in_features=32, out_features=128, bias=True)
            )
            (1-2): 2 x gcn_operation(
              (FC): Linear(in_features=64, out_features=128, bias=True)
            )
          )
        )
      )
    )
  )
  (predictLayer): ModuleList(
    (0): output_layer(
      (FC1): Linear(in_features=192, out_features=64, bias=True)
      (FC2): Linear(in_features=64, out_features=1, bias=True)
    )
  )
)
2023-12-11 00:30:01,514 - INFO - First_FC.weight	torch.Size([128, 2])	cuda:0	True
2023-12-11 00:30:01,514 - INFO - First_FC.bias	torch.Size([128])	cuda:0	True
2023-12-11 00:30:01,514 - INFO - STSGCLS.0.temporal_embedding	torch.Size([1, 12, 1, 128])	cuda:0	True
2023-12-11 00:30:01,514 - INFO - STSGCLS.0.spatial_embedding	torch.Size([1, 1, 24, 128])	cuda:0	True
…
2023-12-11 00:30:01,525 - INFO - STSGCLS.2.STSGCMS.2.gcn_operations.2.FC.weight	torch.Size([128, 64])	cuda:0	True
2023-12-11 00:30:01,525 - INFO - STSGCLS.2.STSGCMS.2.gcn_operations.2.FC.bias	torch.Size([128])	cuda:0	True
2023-12-11 00:30:01,525 - INFO - predictLayer.0.FC1.weight	torch.Size([64, 192])	cuda:0	True
2023-12-11 00:30:01,525 - INFO - predictLayer.0.FC1.bias	torch.Size([64])	cuda:0	True
2023-12-11 00:30:01,525 - INFO - predictLayer.0.FC2.weight	torch.Size([1, 64])	cuda:0	True
2023-12-11 00:30:01,525 - INFO - predictLayer.0.FC2.bias	torch.Size([1])	cuda:0	True
2023-12-11 00:30:01,527 - INFO - Total parameter numbers: 178961
2023-12-11 00:30:27,290 - INFO - STFGNN(
  (First_FC): Linear(in_features=2, out_features=128, bias=True)
  (STSGCLS): ModuleList(
    (0): STSGCL(
      (conv1): Conv2d(128, 32, kernel_size=(1, 2), stride=(1, 1), dilation=(1, 3))
      (conv2): Conv2d(128, 32, kernel_size=(1, 2), stride=(1, 1), dilation=(1, 3))
      (STSGCMS): ModuleList(
        (0-8): 9 x STSGCM(
          (gcn_operations): ModuleList(
            (0): gcn_operation(
              (FC): Linear(in_features=128, out_features=64, bias=True)
            )
            (1-2): 2 x gcn_operation(
              (FC): Linear(in_features=32, out_features=64, bias=True)
            )
          )
        )
      )
    )
    (1): STSGCL(
      (conv1): Conv2d(32, 32, kernel_size=(1, 2), stride=(1, 1), dilation=(1, 3))
      (conv2): Conv2d(32, 32, kernel_size=(1, 2), stride=(1, 1), dilation=(1, 3))
      (STSGCMS): ModuleList(
        (0-5): 6 x STSGCM(
          (gcn_operations): ModuleList(
            (0-2): 3 x gcn_operation(
              (FC): Linear(in_features=32, out_features=64, bias=True)
            )
          )
        )
      )
    )
    (2): STSGCL(
      (conv1): Conv2d(32, 64, kernel_size=(1, 2), stride=(1, 1), dilation=(1, 3))
      (conv2): Conv2d(32, 64, kernel_size=(1, 2), stride=(1, 1), dilation=(1, 3))
      (STSGCMS): ModuleList(
        (0-2): 3 x STSGCM(
          (gcn_operations): ModuleList(
            (0): gcn_operation(
              (FC): Linear(in_features=32, out_features=128, bias=True)
            )
            (1-2): 2 x gcn_operation(
              (FC): Linear(in_features=64, out_features=128, bias=True)
            )
          )
        )
      )
    )
  )
  (predictLayer): ModuleList(
    (0): output_layer(
      (FC1): Linear(in_features=192, out_features=64, bias=True)
      (FC2): Linear(in_features=64, out_features=1, bias=True)
    )
  )
)
2023-12-11 00:30:27,290 - INFO - First_FC.weight	torch.Size([128, 2])	cuda:0	True
2023-12-11 00:30:27,290 - INFO - First_FC.bias	torch.Size([128])	cuda:0	True
2023-12-11 00:30:27,290 - INFO - STSGCLS.0.temporal_embedding	torch.Size([1, 12, 1, 128])	cuda:0	True
2023-12-11 00:30:27,290 - INFO - STSGCLS.0.spatial_embedding	torch.Size([1, 1, 24, 128])	cuda:0	True
…
2023-12-11 00:30:27,293 - INFO - STSGCLS.2.STSGCMS.2.gcn_operations.2.FC.weight	torch.Size([128, 64])	cuda:0	True
2023-12-11 00:30:27,293 - INFO - STSGCLS.2.STSGCMS.2.gcn_operations.2.FC.bias	torch.Size([128])	cuda:0	True
2023-12-11 00:30:27,293 - INFO - predictLayer.0.FC1.weight	torch.Size([64, 192])	cuda:0	True
2023-12-11 00:30:27,293 - INFO - predictLayer.0.FC1.bias	torch.Size([64])	cuda:0	True
2023-12-11 00:30:27,293 - INFO - predictLayer.0.FC2.weight	torch.Size([1, 64])	cuda:0	True
2023-12-11 00:30:27,293 - INFO - predictLayer.0.FC2.bias	torch.Size([1])	cuda:0	True
2023-12-11 00:30:27,293 - INFO - Total parameter numbers: 261281
2023-12-11 00:36:36,432 - INFO - STFGNN(
  (First_FC): Linear(in_features=2, out_features=64, bias=True)
  (STSGCLS): ModuleList(
    (0): STSGCL(
      (conv1): Conv2d(64, 32, kernel_size=(1, 2), stride=(1, 1), dilation=(1, 3))
      (conv2): Conv2d(64, 32, kernel_size=(1, 2), stride=(1, 1), dilation=(1, 3))
      (STSGCMS): ModuleList(
        (0-8): 9 x STSGCM(
          (gcn_operations): ModuleList(
            (0): gcn_operation(
              (FC): Linear(in_features=64, out_features=64, bias=True)
            )
            (1-2): 2 x gcn_operation(
              (FC): Linear(in_features=32, out_features=64, bias=True)
            )
          )
        )
      )
    )
    (1): STSGCL(
      (conv1): Conv2d(32, 32, kernel_size=(1, 2), stride=(1, 1), dilation=(1, 3))
      (conv2): Conv2d(32, 32, kernel_size=(1, 2), stride=(1, 1), dilation=(1, 3))
      (STSGCMS): ModuleList(
        (0-5): 6 x STSGCM(
          (gcn_operations): ModuleList(
            (0-2): 3 x gcn_operation(
              (FC): Linear(in_features=32, out_features=64, bias=True)
            )
          )
        )
      )
    )
    (2): STSGCL(
      (conv1): Conv2d(32, 32, kernel_size=(1, 2), stride=(1, 1), dilation=(1, 3))
      (conv2): Conv2d(32, 32, kernel_size=(1, 2), stride=(1, 1), dilation=(1, 3))
      (STSGCMS): ModuleList(
        (0-2): 3 x STSGCM(
          (gcn_operations): ModuleList(
            (0-2): 3 x gcn_operation(
              (FC): Linear(in_features=32, out_features=64, bias=True)
            )
          )
        )
      )
    )
  )
  (predictLayer): ModuleList(
    (0): output_layer(
      (FC1): Linear(in_features=96, out_features=128, bias=True)
      (FC2): Linear(in_features=128, out_features=1, bias=True)
    )
  )
)
2023-12-11 00:36:36,432 - INFO - First_FC.weight	torch.Size([64, 2])	cuda:0	True
2023-12-11 00:36:36,432 - INFO - First_FC.bias	torch.Size([64])	cuda:0	True
2023-12-11 00:36:36,432 - INFO - STSGCLS.0.temporal_embedding	torch.Size([1, 12, 1, 64])	cuda:0	True
2023-12-11 00:36:36,432 - INFO - STSGCLS.0.spatial_embedding	torch.Size([1, 1, 24, 64])	cuda:0	True
…
2023-12-11 00:36:36,448 - INFO - STSGCLS.2.STSGCMS.2.gcn_operations.2.FC.weight	torch.Size([64, 32])	cuda:0	True
2023-12-11 00:36:36,448 - INFO - STSGCLS.2.STSGCMS.2.gcn_operations.2.FC.bias	torch.Size([64])	cuda:0	True
2023-12-11 00:36:36,448 - INFO - predictLayer.0.FC1.weight	torch.Size([128, 96])	cuda:0	True
2023-12-11 00:36:36,448 - INFO - predictLayer.0.FC1.bias	torch.Size([128])	cuda:0	True
2023-12-11 00:36:36,448 - INFO - predictLayer.0.FC2.weight	torch.Size([1, 128])	cuda:0	True
2023-12-11 00:36:36,448 - INFO - predictLayer.0.FC2.bias	torch.Size([1])	cuda:0	True
2023-12-11 00:36:36,448 - INFO - Total parameter numbers: 166113
2023-12-11 00:40:45,244 - INFO - STFGNN(
  (First_FC): Linear(in_features=2, out_features=64, bias=True)
  (STSGCLS): ModuleList(
    (0): STSGCL(
      (conv1): Conv2d(64, 32, kernel_size=(1, 2), stride=(1, 1), dilation=(1, 3))
      (conv2): Conv2d(64, 32, kernel_size=(1, 2), stride=(1, 1), dilation=(1, 3))
      (STSGCMS): ModuleList(
        (0-8): 9 x STSGCM(
          (gcn_operations): ModuleList(
            (0): gcn_operation(
              (FC): Linear(in_features=64, out_features=64, bias=True)
            )
            (1-2): 2 x gcn_operation(
              (FC): Linear(in_features=32, out_features=64, bias=True)
            )
          )
        )
      )
    )
    (1): STSGCL(
      (conv1): Conv2d(32, 32, kernel_size=(1, 2), stride=(1, 1), dilation=(1, 3))
      (conv2): Conv2d(32, 32, kernel_size=(1, 2), stride=(1, 1), dilation=(1, 3))
      (STSGCMS): ModuleList(
        (0-5): 6 x STSGCM(
          (gcn_operations): ModuleList(
            (0-2): 3 x gcn_operation(
              (FC): Linear(in_features=32, out_features=64, bias=True)
            )
          )
        )
      )
    )
    (2): STSGCL(
      (conv1): Conv2d(32, 32, kernel_size=(1, 2), stride=(1, 1), dilation=(1, 3))
      (conv2): Conv2d(32, 32, kernel_size=(1, 2), stride=(1, 1), dilation=(1, 3))
      (STSGCMS): ModuleList(
        (0-2): 3 x STSGCM(
          (gcn_operations): ModuleList(
            (0-2): 3 x gcn_operation(
              (FC): Linear(in_features=32, out_features=64, bias=True)
            )
          )
        )
      )
    )
  )
  (predictLayer): ModuleList(
    (0): output_layer(
      (FC1): Linear(in_features=96, out_features=64, bias=True)
      (FC2): Linear(in_features=64, out_features=1, bias=True)
    )
  )
)
2023-12-11 00:40:45,244 - INFO - First_FC.weight	torch.Size([64, 2])	cuda:0	True
2023-12-11 00:40:45,244 - INFO - First_FC.bias	torch.Size([64])	cuda:0	True
2023-12-11 00:40:45,244 - INFO - STSGCLS.0.temporal_embedding	torch.Size([1, 12, 1, 64])	cuda:0	True
2023-12-11 00:40:45,244 - INFO - STSGCLS.0.spatial_embedding	torch.Size([1, 1, 24, 64])	cuda:0	True
…
2023-12-11 12:52:13,269 - INFO - STSGCLS.2.STSGCMS.2.gcn_operations.2.FC.bias	torch.Size([64])	cuda:0	True
2023-12-11 12:52:13,269 - INFO - predictLayer.0.FC1.weight	torch.Size([64, 96])	cuda:0	True
2023-12-11 12:52:13,269 - INFO - predictLayer.0.FC1.bias	torch.Size([64])	cuda:0	True
2023-12-11 12:52:13,269 - INFO - predictLayer.0.FC2.weight	torch.Size([1, 64])	cuda:0	True
2023-12-11 12:52:13,269 - INFO - predictLayer.0.FC2.bias	torch.Size([1])	cuda:0	True
2023-12-11 12:52:13,271 - INFO - Total parameter numbers: 136065
2023-12-11 13:20:14,667 - INFO - Start evaluating ...
2023-12-11 13:23:22,813 - INFO - STFGNN(
  (First_FC): Linear(in_features=2, out_features=64, bias=True)
  (STSGCLS): ModuleList(
    (0): STSGCL(
      (conv1): Conv2d(64, 64, kernel_size=(1, 2), stride=(1, 1), dilation=(1, 3))
      (conv2): Conv2d(64, 64, kernel_size=(1, 2), stride=(1, 1), dilation=(1, 3))
      (STSGCMS): ModuleList(
        (0-8): 9 x STSGCM(
          (gcn_operations): ModuleList(
            (0-2): 3 x gcn_operation(
              (FC): Linear(in_features=64, out_features=128, bias=True)
            )
          )
        )
      )
    )
    (1): STSGCL(
      (conv1): Conv2d(64, 64, kernel_size=(1, 2), stride=(1, 1), dilation=(1, 3))
      (conv2): Conv2d(64, 64, kernel_size=(1, 2), stride=(1, 1), dilation=(1, 3))
      (STSGCMS): ModuleList(
        (0-5): 6 x STSGCM(
          (gcn_operations): ModuleList(
            (0-2): 3 x gcn_operation(
              (FC): Linear(in_features=64, out_features=128, bias=True)
            )
          )
        )
      )
    )
    (2): STSGCL(
      (conv1): Conv2d(64, 64, kernel_size=(1, 2), stride=(1, 1), dilation=(1, 3))
      (conv2): Conv2d(64, 64, kernel_size=(1, 2), stride=(1, 1), dilation=(1, 3))
      (STSGCMS): ModuleList(
        (0-2): 3 x STSGCM(
          (gcn_operations): ModuleList(
            (0-2): 3 x gcn_operation(
              (FC): Linear(in_features=64, out_features=128, bias=True)
            )
          )
        )
      )
    )
  )
  (predictLayer): ModuleList(
    (0): output_layer(
      (FC1): Linear(in_features=192, out_features=128, bias=True)
      (FC2): Linear(in_features=128, out_features=1, bias=True)
    )
  )
)
2023-12-11 13:23:22,815 - INFO - First_FC.weight	torch.Size([64, 2])	cuda:0	True
2023-12-11 13:23:22,815 - INFO - First_FC.bias	torch.Size([64])	cuda:0	True
2023-12-11 13:23:22,815 - INFO - STSGCLS.0.temporal_embedding	torch.Size([1, 12, 1, 64])	cuda:0	True
2023-12-11 13:23:22,815 - INFO - STSGCLS.0.spatial_embedding	torch.Size([1, 1, 24, 64])	cuda:0	True
…
